HloModule IrToHlo.87, entry_computation_layout={(f32[4096]{0}, f32[131072]{0}, s32[131072]{0}, f32[4096,64]{1,0}, f32[], /*index=5*/f32[64]{0}, f32[64,64]{1,0}, f32[64]{0}, f32[64,64]{1,0}, f32[16]{0}, /*index=10*/f32[16,64]{1,0}, f32[64]{0}, f32[64,64]{1,0})->(f32[4096,64]{1,0}, f32[4096,64]{1,0}, f32[4096,64]{1,0}, f32[4096,64]{1,0}, f32[4096,64]{1,0}, /*index=5*/f32[4096,16]{1,0}, f32[4096,64]{1,0}, s32[131072]{0}, f32[131072]{0}, f32[4096]{0}, /*index=10*/f32[64,64]{1,0}, f32[64]{0}, f32[64,64]{1,0}, f32[64]{0}, f32[64,64]{1,0}, /*index=15*/f32[64]{0}, f32[16,64]{1,0}, f32[16]{0})}

%Hlo_locals_CallImpl.5 (p0.6: f32[4096,64], p1.7: s32[131072], p2.8: f32[131072], p3.9: f32[4096]) -> f32[4096,64] {
  %p0.6 = f32[4096,64]{1,0} parameter(0)
  %p1.7 = s32[131072]{0} parameter(1)
  %p2.8 = f32[131072]{0} parameter(2)
  %p3.9 = f32[4096]{0} parameter(3)
  ROOT %custom-call.10 = f32[4096,64]{1,0} custom-call(f32[4096,64]{1,0} %p0.6, s32[131072]{0} %p1.7, f32[131072]{0} %p2.8, f32[4096]{0} %p3.9), custom_call_target="AwsNeuronCustomNativeKernel", api_version=API_VERSION_UNSPECIFIED, backend_config="…"
}

%_locals_CallImpl.11 (p0.12: f32[4096,64], p1.13: s32[131072], p2.14: f32[131072], p3.15: f32[4096]) -> f32[4096,64] {
  %p0.12 = f32[4096,64]{1,0} parameter(0)
  %p1.13 = s32[131072]{0} parameter(1)
  %p2.14 = f32[131072]{0} parameter(2)
  %p3.15 = f32[4096]{0} parameter(3)
  ROOT %call.16 = f32[4096,64]{1,0} call(f32[4096,64]{1,0} %p0.12, s32[131072]{0} %p1.13, f32[131072]{0} %p2.14, f32[4096]{0} %p3.15), to_apply=%Hlo_locals_CallImpl.5
}

%Hlo_locals_CallImpl.46 (p0.47: f32[4096,64], p1.48: s32[131072], p2.49: f32[131072], p3.50: f32[4096]) -> f32[4096,64] {
  %p0.47 = f32[4096,64]{1,0} parameter(0)
  %p1.48 = s32[131072]{0} parameter(1)
  %p2.49 = f32[131072]{0} parameter(2)
  %p3.50 = f32[4096]{0} parameter(3)
  ROOT %custom-call.51 = f32[4096,64]{1,0} custom-call(f32[4096,64]{1,0} %p0.47, s32[131072]{0} %p1.48, f32[131072]{0} %p2.49, f32[4096]{0} %p3.50), custom_call_target="AwsNeuronCustomNativeKernel", api_version=API_VERSION_UNSPECIFIED, backend_config="…"
}

%_locals_CallImpl.52 (p0.53: f32[4096,64], p1.54: s32[131072], p2.55: f32[131072], p3.56: f32[4096]) -> f32[4096,64] {
  %p0.53 = f32[4096,64]{1,0} parameter(0)
  %p1.54 = s32[131072]{0} parameter(1)
  %p2.55 = f32[131072]{0} parameter(2)
  %p3.56 = f32[4096]{0} parameter(3)
  ROOT %call.57 = f32[4096,64]{1,0} call(f32[4096,64]{1,0} %p0.53, s32[131072]{0} %p1.54, f32[131072]{0} %p2.55, f32[4096]{0} %p3.56), to_apply=%Hlo_locals_CallImpl.46
}

ENTRY %IrToHlo.87 (p0.1: f32[4096], p1.2: f32[131072], p2.3: s32[131072], p3.4: f32[4096,64], p4.19: f32[], p5.25: f32[64], p6.26: f32[64,64], p7.28: f32[64], p8.29: f32[64,64], p9.65: f32[16], p10.66: f32[16,64], p11.68: f32[64], p12.69: f32[64,64]) -> (f32[4096,64], f32[4096,64], f32[4096,64], f32[4096,64], f32[4096,64], /*index=5*/f32[4096,16], f32[4096,64], s32[131072], f32[131072], f32[4096], /*index=10*/f32[64,64], f32[64], f32[64,64], f32[64], f32[64,64], /*index=15*/f32[64], f32[16,64], f32[16]) {
  %p3.4 = f32[4096,64]{1,0} parameter(3), metadata={op_type="xla__device_data" op_name="xla__device_data" source_file="/opt/aws_neuronx_venv_pytorch_2_9/lib/python3.12/site-packages/torch_xla/core/xla_op_registry.py" source_line=44}
  %p2.3 = s32[131072]{0} parameter(2), metadata={op_type="xla__device_data" op_name="xla__device_data" source_file="/opt/aws_neuronx_venv_pytorch_2_9/lib/python3.12/site-packages/torch_xla/core/xla_op_registry.py" source_line=44}
  %p1.2 = f32[131072]{0} parameter(1), metadata={op_type="xla__device_data" op_name="xla__device_data" source_file="/opt/aws_neuronx_venv_pytorch_2_9/lib/python3.12/site-packages/torch_xla/core/xla_op_registry.py" source_line=44}
  %p0.1 = f32[4096]{0} parameter(0), metadata={op_type="xla__device_data" op_name="xla__device_data" source_file="/opt/aws_neuronx_venv_pytorch_2_9/lib/python3.12/site-packages/torch_xla/core/xla_op_registry.py" source_line=44}
  %call.17 = f32[4096,64]{1,0} call(f32[4096,64]{1,0} %p3.4, s32[131072]{0} %p2.3, f32[131072]{0} %p1.2, f32[4096]{0} %p0.1), to_apply=%_locals_CallImpl.11, metadata={op_type="xla___op_<locals>CallImpl" op_name="xla___op_<locals>CallImpl" source_file="/opt/aws_neuronx_venv_pytorch_2_9/lib/python3.12/site-packages/torch_xla/core/xla_op_registry.py" source_line=44}
  %p4.19 = f32[] parameter(4), metadata={op_type="xla__device_data" op_name="xla__device_data" source_file="/home/ubuntu/cs217-final-proj/experiments/gin_nki/run_nki.py" source_line=177}
  %broadcast.20 = f32[4096,64]{1,0} broadcast(f32[] %p4.19), dimensions={}, metadata={op_type="aten__mul" op_name="aten__mul.1/aten__mul" source_file="/home/ubuntu/cs217-final-proj/experiments/gin_nki/run_nki.py" source_line=177}
  %multiply.21 = f32[4096,64]{1,0} multiply(f32[4096,64]{1,0} %p3.4, f32[4096,64]{1,0} %broadcast.20), metadata={op_type="aten__mul" op_name="aten__mul.1/aten__mul" source_file="/home/ubuntu/cs217-final-proj/experiments/gin_nki/run_nki.py" source_line=177}
  %constant.18 = f32[] constant(1), metadata={op_type="prim__Constant" op_name="prim__Constant" source_file="/home/ubuntu/cs217-final-proj/experiments/gin_nki/run_nki.py" source_line=177}
  %broadcast.22 = f32[4096,64]{1,0} broadcast(f32[] %constant.18), dimensions={}, metadata={op_type="aten__add" op_name="aten__add.2/aten__add" source_file="/home/ubuntu/cs217-final-proj/experiments/gin_nki/run_nki.py" source_line=177}
  %multiply.23 = f32[4096,64]{1,0} multiply(f32[4096,64]{1,0} %call.17, f32[4096,64]{1,0} %broadcast.22), metadata={op_type="aten__add" op_name="aten__add.2/aten__add" source_file="/home/ubuntu/cs217-final-proj/experiments/gin_nki/run_nki.py" source_line=177}
  %add.24 = f32[4096,64]{1,0} add(f32[4096,64]{1,0} %multiply.21, f32[4096,64]{1,0} %multiply.23), metadata={op_type="aten__add" op_name="aten__add.2/aten__add" source_file="/home/ubuntu/cs217-final-proj/experiments/gin_nki/run_nki.py" source_line=177}
  %p8.29 = f32[64,64]{1,0} parameter(8), metadata={op_type="xla__device_data" op_name="xla__device_data" source_file="/home/ubuntu/cs217-final-proj/experiments/gin_nki/run_nki.py" source_line=82}
  %transpose.30 = f32[64,64]{0,1} transpose(f32[64,64]{1,0} %p8.29), dimensions={1,0}, metadata={op_type="aten__permute" op_name="aten__permute" source_file="/home/ubuntu/cs217-final-proj/experiments/gin_nki/run_nki.py" source_line=82}
  %dot.31 = f32[4096,64]{1,0} dot(f32[4096,64]{1,0} %add.24, f32[64,64]{0,1} %transpose.30), lhs_contracting_dims={1}, rhs_contracting_dims={0}, metadata={op_type="aten__addmm" op_name="aten__addmm" source_file="/home/ubuntu/cs217-final-proj/experiments/gin_nki/run_nki.py" source_line=82}
  %p7.28 = f32[64]{0} parameter(7), metadata={op_type="xla__device_data" op_name="xla__device_data" source_file="/home/ubuntu/cs217-final-proj/experiments/gin_nki/run_nki.py" source_line=82}
  %reshape.32 = f32[1,64]{1,0} reshape(f32[64]{0} %p7.28), metadata={op_type="aten__addmm" op_name="aten__addmm" source_file="/home/ubuntu/cs217-final-proj/experiments/gin_nki/run_nki.py" source_line=82}
  %broadcast.33 = f32[1,64]{1,0} broadcast(f32[1,64]{1,0} %reshape.32), dimensions={0,1}, metadata={op_type="aten__addmm" op_name="aten__addmm" source_file="/home/ubuntu/cs217-final-proj/experiments/gin_nki/run_nki.py" source_line=82}
  %reshape.34 = f32[64]{0} reshape(f32[1,64]{1,0} %broadcast.33), metadata={op_type="aten__addmm" op_name="aten__addmm" source_file="/home/ubuntu/cs217-final-proj/experiments/gin_nki/run_nki.py" source_line=82}
  %broadcast.35 = f32[4096,64]{1,0} broadcast(f32[64]{0} %reshape.34), dimensions={1}, metadata={op_type="aten__addmm" op_name="aten__addmm" source_file="/home/ubuntu/cs217-final-proj/experiments/gin_nki/run_nki.py" source_line=82}
  %add.36 = f32[4096,64]{1,0} add(f32[4096,64]{1,0} %dot.31, f32[4096,64]{1,0} %broadcast.35), metadata={op_type="aten__addmm" op_name="aten__addmm" source_file="/home/ubuntu/cs217-final-proj/experiments/gin_nki/run_nki.py" source_line=82}
  %constant.37 = f32[] constant(0), metadata={op_type="aten__relu" op_name="aten__relu" source_file="/opt/aws_neuronx_venv_pytorch_2_9/lib/python3.12/site-packages/torch/nn/functional.py" source_line=1697}
  %broadcast.38 = f32[4096,64]{1,0} broadcast(f32[] %constant.37), dimensions={}, metadata={op_type="aten__relu" op_name="aten__relu" source_file="/opt/aws_neuronx_venv_pytorch_2_9/lib/python3.12/site-packages/torch/nn/functional.py" source_line=1697}
  %maximum.39 = f32[4096,64]{1,0} maximum(f32[4096,64]{1,0} %add.36, f32[4096,64]{1,0} %broadcast.38), metadata={op_type="aten__relu" op_name="aten__relu" source_file="/opt/aws_neuronx_venv_pytorch_2_9/lib/python3.12/site-packages/torch/nn/functional.py" source_line=1697}
  %p6.26 = f32[64,64]{1,0} parameter(6), metadata={op_type="xla__device_data" op_name="xla__device_data" source_file="/home/ubuntu/cs217-final-proj/experiments/gin_nki/run_nki.py" source_line=82}
  %transpose.27 = f32[64,64]{0,1} transpose(f32[64,64]{1,0} %p6.26), dimensions={1,0}, metadata={op_type="aten__permute" op_name="aten__permute" source_file="/home/ubuntu/cs217-final-proj/experiments/gin_nki/run_nki.py" source_line=82}
  %dot.40 = f32[4096,64]{1,0} dot(f32[4096,64]{1,0} %maximum.39, f32[64,64]{0,1} %transpose.27), lhs_contracting_dims={1}, rhs_contracting_dims={0}, metadata={op_type="aten__addmm" op_name="aten__addmm" source_file="/home/ubuntu/cs217-final-proj/experiments/gin_nki/run_nki.py" source_line=82}
  %p5.25 = f32[64]{0} parameter(5), metadata={op_type="xla__device_data" op_name="xla__device_data" source_file="/home/ubuntu/cs217-final-proj/experiments/gin_nki/run_nki.py" source_line=82}
  %reshape.41 = f32[1,64]{1,0} reshape(f32[64]{0} %p5.25), metadata={op_type="aten__addmm" op_name="aten__addmm" source_file="/home/ubuntu/cs217-final-proj/experiments/gin_nki/run_nki.py" source_line=82}
  %broadcast.42 = f32[1,64]{1,0} broadcast(f32[1,64]{1,0} %reshape.41), dimensions={0,1}, metadata={op_type="aten__addmm" op_name="aten__addmm" source_file="/home/ubuntu/cs217-final-proj/experiments/gin_nki/run_nki.py" source_line=82}
  %reshape.43 = f32[64]{0} reshape(f32[1,64]{1,0} %broadcast.42), metadata={op_type="aten__addmm" op_name="aten__addmm" source_file="/home/ubuntu/cs217-final-proj/experiments/gin_nki/run_nki.py" source_line=82}
  %broadcast.44 = f32[4096,64]{1,0} broadcast(f32[64]{0} %reshape.43), dimensions={1}, metadata={op_type="aten__addmm" op_name="aten__addmm" source_file="/home/ubuntu/cs217-final-proj/experiments/gin_nki/run_nki.py" source_line=82}
  %add.45 = f32[4096,64]{1,0} add(f32[4096,64]{1,0} %dot.40, f32[4096,64]{1,0} %broadcast.44), metadata={op_type="aten__addmm" op_name="aten__addmm" source_file="/home/ubuntu/cs217-final-proj/experiments/gin_nki/run_nki.py" source_line=82}
  %call.58 = f32[4096,64]{1,0} call(f32[4096,64]{1,0} %add.45, s32[131072]{0} %p2.3, f32[131072]{0} %p1.2, f32[4096]{0} %p0.1), to_apply=%_locals_CallImpl.52, metadata={op_type="xla___op_<locals>CallImpl" op_name="xla___op_<locals>CallImpl" source_file="/opt/aws_neuronx_venv_pytorch_2_9/lib/python3.12/site-packages/torch_xla/core/xla_op_registry.py" source_line=44}
  %broadcast.60 = f32[4096,64]{1,0} broadcast(f32[] %p4.19), dimensions={}, metadata={op_type="aten__mul" op_name="aten__mul.3/aten__mul" source_file="/home/ubuntu/cs217-final-proj/experiments/gin_nki/run_nki.py" source_line=181}
  %multiply.61 = f32[4096,64]{1,0} multiply(f32[4096,64]{1,0} %add.45, f32[4096,64]{1,0} %broadcast.60), metadata={op_type="aten__mul" op_name="aten__mul.3/aten__mul" source_file="/home/ubuntu/cs217-final-proj/experiments/gin_nki/run_nki.py" source_line=181}
  %constant.59 = f32[] constant(1), metadata={op_type="prim__Constant" op_name="prim__Constant" source_file="/home/ubuntu/cs217-final-proj/experiments/gin_nki/run_nki.py" source_line=181}
  %broadcast.62 = f32[4096,64]{1,0} broadcast(f32[] %constant.59), dimensions={}, metadata={op_type="aten__add" op_name="aten__add.4/aten__add" source_file="/home/ubuntu/cs217-final-proj/experiments/gin_nki/run_nki.py" source_line=181}
  %multiply.63 = f32[4096,64]{1,0} multiply(f32[4096,64]{1,0} %call.58, f32[4096,64]{1,0} %broadcast.62), metadata={op_type="aten__add" op_name="aten__add.4/aten__add" source_file="/home/ubuntu/cs217-final-proj/experiments/gin_nki/run_nki.py" source_line=181}
  %add.64 = f32[4096,64]{1,0} add(f32[4096,64]{1,0} %multiply.61, f32[4096,64]{1,0} %multiply.63), metadata={op_type="aten__add" op_name="aten__add.4/aten__add" source_file="/home/ubuntu/cs217-final-proj/experiments/gin_nki/run_nki.py" source_line=181}
  %p12.69 = f32[64,64]{1,0} parameter(12), metadata={op_type="xla__device_data" op_name="xla__device_data" source_file="/home/ubuntu/cs217-final-proj/experiments/gin_nki/run_nki.py" source_line=82}
  %transpose.70 = f32[64,64]{0,1} transpose(f32[64,64]{1,0} %p12.69), dimensions={1,0}, metadata={op_type="aten__permute" op_name="aten__permute" source_file="/home/ubuntu/cs217-final-proj/experiments/gin_nki/run_nki.py" source_line=82}
  %dot.71 = f32[4096,64]{1,0} dot(f32[4096,64]{1,0} %add.64, f32[64,64]{0,1} %transpose.70), lhs_contracting_dims={1}, rhs_contracting_dims={0}, metadata={op_type="aten__addmm" op_name="aten__addmm" source_file="/home/ubuntu/cs217-final-proj/experiments/gin_nki/run_nki.py" source_line=82}
  %p11.68 = f32[64]{0} parameter(11), metadata={op_type="xla__device_data" op_name="xla__device_data" source_file="/home/ubuntu/cs217-final-proj/experiments/gin_nki/run_nki.py" source_line=82}
  %reshape.72 = f32[1,64]{1,0} reshape(f32[64]{0} %p11.68), metadata={op_type="aten__addmm" op_name="aten__addmm" source_file="/home/ubuntu/cs217-final-proj/experiments/gin_nki/run_nki.py" source_line=82}
  %broadcast.73 = f32[1,64]{1,0} broadcast(f32[1,64]{1,0} %reshape.72), dimensions={0,1}, metadata={op_type="aten__addmm" op_name="aten__addmm" source_file="/home/ubuntu/cs217-final-proj/experiments/gin_nki/run_nki.py" source_line=82}
  %reshape.74 = f32[64]{0} reshape(f32[1,64]{1,0} %broadcast.73), metadata={op_type="aten__addmm" op_name="aten__addmm" source_file="/home/ubuntu/cs217-final-proj/experiments/gin_nki/run_nki.py" source_line=82}
  %broadcast.75 = f32[4096,64]{1,0} broadcast(f32[64]{0} %reshape.74), dimensions={1}, metadata={op_type="aten__addmm" op_name="aten__addmm" source_file="/home/ubuntu/cs217-final-proj/experiments/gin_nki/run_nki.py" source_line=82}
  %add.76 = f32[4096,64]{1,0} add(f32[4096,64]{1,0} %dot.71, f32[4096,64]{1,0} %broadcast.75), metadata={op_type="aten__addmm" op_name="aten__addmm" source_file="/home/ubuntu/cs217-final-proj/experiments/gin_nki/run_nki.py" source_line=82}
  %constant.77 = f32[] constant(0), metadata={op_type="aten__relu" op_name="aten__relu" source_file="/opt/aws_neuronx_venv_pytorch_2_9/lib/python3.12/site-packages/torch/nn/functional.py" source_line=1697}
  %broadcast.78 = f32[4096,64]{1,0} broadcast(f32[] %constant.77), dimensions={}, metadata={op_type="aten__relu" op_name="aten__relu" source_file="/opt/aws_neuronx_venv_pytorch_2_9/lib/python3.12/site-packages/torch/nn/functional.py" source_line=1697}
  %maximum.79 = f32[4096,64]{1,0} maximum(f32[4096,64]{1,0} %add.76, f32[4096,64]{1,0} %broadcast.78), metadata={op_type="aten__relu" op_name="aten__relu" source_file="/opt/aws_neuronx_venv_pytorch_2_9/lib/python3.12/site-packages/torch/nn/functional.py" source_line=1697}
  %p10.66 = f32[16,64]{1,0} parameter(10), metadata={op_type="xla__device_data" op_name="xla__device_data" source_file="/home/ubuntu/cs217-final-proj/experiments/gin_nki/run_nki.py" source_line=82}
  %transpose.67 = f32[64,16]{0,1} transpose(f32[16,64]{1,0} %p10.66), dimensions={1,0}, metadata={op_type="aten__permute" op_name="aten__permute" source_file="/home/ubuntu/cs217-final-proj/experiments/gin_nki/run_nki.py" source_line=82}
  %dot.80 = f32[4096,16]{1,0} dot(f32[4096,64]{1,0} %maximum.79, f32[64,16]{0,1} %transpose.67), lhs_contracting_dims={1}, rhs_contracting_dims={0}, metadata={op_type="aten__addmm" op_name="aten__addmm" source_file="/home/ubuntu/cs217-final-proj/experiments/gin_nki/run_nki.py" source_line=82}
  %p9.65 = f32[16]{0} parameter(9), metadata={op_type="xla__device_data" op_name="xla__device_data" source_file="/home/ubuntu/cs217-final-proj/experiments/gin_nki/run_nki.py" source_line=82}
  %reshape.81 = f32[1,16]{1,0} reshape(f32[16]{0} %p9.65), metadata={op_type="aten__addmm" op_name="aten__addmm" source_file="/home/ubuntu/cs217-final-proj/experiments/gin_nki/run_nki.py" source_line=82}
  %broadcast.82 = f32[1,16]{1,0} broadcast(f32[1,16]{1,0} %reshape.81), dimensions={0,1}, metadata={op_type="aten__addmm" op_name="aten__addmm" source_file="/home/ubuntu/cs217-final-proj/experiments/gin_nki/run_nki.py" source_line=82}
  %reshape.83 = f32[16]{0} reshape(f32[1,16]{1,0} %broadcast.82), metadata={op_type="aten__addmm" op_name="aten__addmm" source_file="/home/ubuntu/cs217-final-proj/experiments/gin_nki/run_nki.py" source_line=82}
  %broadcast.84 = f32[4096,16]{1,0} broadcast(f32[16]{0} %reshape.83), dimensions={1}, metadata={op_type="aten__addmm" op_name="aten__addmm" source_file="/home/ubuntu/cs217-final-proj/experiments/gin_nki/run_nki.py" source_line=82}
  %add.85 = f32[4096,16]{1,0} add(f32[4096,16]{1,0} %dot.80, f32[4096,16]{1,0} %broadcast.84), metadata={op_type="aten__addmm" op_name="aten__addmm" source_file="/home/ubuntu/cs217-final-proj/experiments/gin_nki/run_nki.py" source_line=82}
  ROOT %tuple.86 = (f32[4096,64]{1,0}, f32[4096,64]{1,0}, f32[4096,64]{1,0}, f32[4096,64]{1,0}, f32[4096,64]{1,0}, /*index=5*/f32[4096,16]{1,0}, f32[4096,64]{1,0}, s32[131072]{0}, f32[131072]{0}, f32[4096]{0}, /*index=10*/f32[64,64]{1,0}, f32[64]{0}, f32[64,64]{1,0}, f32[64]{0}, f32[64,64]{1,0}, /*index=15*/f32[64]{0}, f32[16,64]{1,0}, f32[16]{0}) tuple(f32[4096,64]{1,0} %call.17, f32[4096,64]{1,0} %add.24, f32[4096,64]{1,0} %add.45, f32[4096,64]{1,0} %call.58, f32[4096,64]{1,0} %add.64, /*index=5*/f32[4096,16]{1,0} %add.85, f32[4096,64]{1,0} %p3.4, s32[131072]{0} %p2.3, f32[131072]{0} %p1.2, f32[4096]{0} %p0.1, /*index=10*/f32[64,64]{1,0} %p8.29, f32[64]{0} %p7.28, f32[64,64]{1,0} %p6.26, f32[64]{0} %p5.25, f32[64,64]{1,0} %p12.69, /*index=15*/f32[64]{0} %p11.68, f32[16,64]{1,0} %p10.66, f32[16]{0} %p9.65)
}

