HloModule IrToHlo.53, entry_computation_layout={(f32[4096]{0}, f32[131072]{0}, s32[131072]{0}, f32[4096,64]{1,0}, f32[64]{0}, /*index=5*/f32[64,64]{1,0}, f32[16]{0}, f32[16,64]{1,0})->(f32[4096,64]{1,0}, f32[4096,64]{1,0}, f32[4096,64]{1,0}, f32[4096,16]{1,0}, f32[4096,64]{1,0}, /*index=5*/s32[131072]{0}, f32[131072]{0}, f32[4096]{0}, f32[64,64]{1,0}, f32[64]{0}, /*index=10*/f32[16,64]{1,0}, f32[16]{0})}

%Hlo_locals_CallImpl.5 (p0.6: f32[4096,64], p1.7: s32[131072], p2.8: f32[131072], p3.9: f32[4096]) -> f32[4096,64] {
  %p0.6 = f32[4096,64]{1,0} parameter(0)
  %p1.7 = s32[131072]{0} parameter(1)
  %p2.8 = f32[131072]{0} parameter(2)
  %p3.9 = f32[4096]{0} parameter(3)
  ROOT %custom-call.10 = f32[4096,64]{1,0} custom-call(f32[4096,64]{1,0} %p0.6, s32[131072]{0} %p1.7, f32[131072]{0} %p2.8, f32[4096]{0} %p3.9), custom_call_target="AwsNeuronCustomNativeKernel", api_version=API_VERSION_UNSPECIFIED, backend_config="…"
}

%_locals_CallImpl.11 (p0.12: f32[4096,64], p1.13: s32[131072], p2.14: f32[131072], p3.15: f32[4096]) -> f32[4096,64] {
  %p0.12 = f32[4096,64]{1,0} parameter(0)
  %p1.13 = s32[131072]{0} parameter(1)
  %p2.14 = f32[131072]{0} parameter(2)
  %p3.15 = f32[4096]{0} parameter(3)
  ROOT %call.16 = f32[4096,64]{1,0} call(f32[4096,64]{1,0} %p0.12, s32[131072]{0} %p1.13, f32[131072]{0} %p2.14, f32[4096]{0} %p3.15), to_apply=%Hlo_locals_CallImpl.5
}

%Hlo_locals_CallImpl.30 (p0.31: f32[4096,64], p1.32: s32[131072], p2.33: f32[131072], p3.34: f32[4096]) -> f32[4096,64] {
  %p0.31 = f32[4096,64]{1,0} parameter(0)
  %p1.32 = s32[131072]{0} parameter(1)
  %p2.33 = f32[131072]{0} parameter(2)
  %p3.34 = f32[4096]{0} parameter(3)
  ROOT %custom-call.35 = f32[4096,64]{1,0} custom-call(f32[4096,64]{1,0} %p0.31, s32[131072]{0} %p1.32, f32[131072]{0} %p2.33, f32[4096]{0} %p3.34), custom_call_target="AwsNeuronCustomNativeKernel", api_version=API_VERSION_UNSPECIFIED, backend_config="…"
}

%_locals_CallImpl.36 (p0.37: f32[4096,64], p1.38: s32[131072], p2.39: f32[131072], p3.40: f32[4096]) -> f32[4096,64] {
  %p0.37 = f32[4096,64]{1,0} parameter(0)
  %p1.38 = s32[131072]{0} parameter(1)
  %p2.39 = f32[131072]{0} parameter(2)
  %p3.40 = f32[4096]{0} parameter(3)
  ROOT %call.41 = f32[4096,64]{1,0} call(f32[4096,64]{1,0} %p0.37, s32[131072]{0} %p1.38, f32[131072]{0} %p2.39, f32[4096]{0} %p3.40), to_apply=%Hlo_locals_CallImpl.30
}

ENTRY %IrToHlo.53 (p0.1: f32[4096], p1.2: f32[131072], p2.3: s32[131072], p3.4: f32[4096,64], p4.18: f32[64], p5.19: f32[64,64], p6.43: f32[16], p7.44: f32[16,64]) -> (f32[4096,64], f32[4096,64], f32[4096,64], f32[4096,16], f32[4096,64], /*index=5*/s32[131072], f32[131072], f32[4096], f32[64,64], f32[64], /*index=10*/f32[16,64], f32[16]) {
  %p3.4 = f32[4096,64]{1,0} parameter(3), metadata={op_type="xla__device_data" op_name="xla__device_data" source_file="/opt/aws_neuronx_venv_pytorch_2_9/lib/python3.12/site-packages/torch_xla/core/xla_op_registry.py" source_line=44}
  %p2.3 = s32[131072]{0} parameter(2), metadata={op_type="xla__device_data" op_name="xla__device_data" source_file="/opt/aws_neuronx_venv_pytorch_2_9/lib/python3.12/site-packages/torch_xla/core/xla_op_registry.py" source_line=44}
  %p1.2 = f32[131072]{0} parameter(1), metadata={op_type="xla__device_data" op_name="xla__device_data" source_file="/opt/aws_neuronx_venv_pytorch_2_9/lib/python3.12/site-packages/torch_xla/core/xla_op_registry.py" source_line=44}
  %p0.1 = f32[4096]{0} parameter(0), metadata={op_type="xla__device_data" op_name="xla__device_data" source_file="/opt/aws_neuronx_venv_pytorch_2_9/lib/python3.12/site-packages/torch_xla/core/xla_op_registry.py" source_line=44}
  %call.17 = f32[4096,64]{1,0} call(f32[4096,64]{1,0} %p3.4, s32[131072]{0} %p2.3, f32[131072]{0} %p1.2, f32[4096]{0} %p0.1), to_apply=%_locals_CallImpl.11, metadata={op_type="xla___op_<locals>CallImpl" op_name="xla___op_<locals>CallImpl" source_file="/opt/aws_neuronx_venv_pytorch_2_9/lib/python3.12/site-packages/torch_xla/core/xla_op_registry.py" source_line=44}
  %p5.19 = f32[64,64]{1,0} parameter(5), metadata={op_type="xla__device_data" op_name="xla__device_data" source_file="/home/ubuntu/cs217-final-proj/experiments/gcn_fx_rewrite/run_nki.py" source_line=193}
  %transpose.20 = f32[64,64]{0,1} transpose(f32[64,64]{1,0} %p5.19), dimensions={1,0}, metadata={op_type="aten__permute" op_name="aten__permute" source_file="/home/ubuntu/cs217-final-proj/experiments/gcn_fx_rewrite/run_nki.py" source_line=193}
  %dot.21 = f32[4096,64]{1,0} dot(f32[4096,64]{1,0} %call.17, f32[64,64]{0,1} %transpose.20), lhs_contracting_dims={1}, rhs_contracting_dims={0}, metadata={op_type="aten__addmm" op_name="aten__addmm" source_file="/home/ubuntu/cs217-final-proj/experiments/gcn_fx_rewrite/run_nki.py" source_line=193}
  %p4.18 = f32[64]{0} parameter(4), metadata={op_type="xla__device_data" op_name="xla__device_data" source_file="/home/ubuntu/cs217-final-proj/experiments/gcn_fx_rewrite/run_nki.py" source_line=193}
  %reshape.22 = f32[1,64]{1,0} reshape(f32[64]{0} %p4.18), metadata={op_type="aten__addmm" op_name="aten__addmm" source_file="/home/ubuntu/cs217-final-proj/experiments/gcn_fx_rewrite/run_nki.py" source_line=193}
  %broadcast.23 = f32[1,64]{1,0} broadcast(f32[1,64]{1,0} %reshape.22), dimensions={0,1}, metadata={op_type="aten__addmm" op_name="aten__addmm" source_file="/home/ubuntu/cs217-final-proj/experiments/gcn_fx_rewrite/run_nki.py" source_line=193}
  %reshape.24 = f32[64]{0} reshape(f32[1,64]{1,0} %broadcast.23), metadata={op_type="aten__addmm" op_name="aten__addmm" source_file="/home/ubuntu/cs217-final-proj/experiments/gcn_fx_rewrite/run_nki.py" source_line=193}
  %broadcast.25 = f32[4096,64]{1,0} broadcast(f32[64]{0} %reshape.24), dimensions={1}, metadata={op_type="aten__addmm" op_name="aten__addmm" source_file="/home/ubuntu/cs217-final-proj/experiments/gcn_fx_rewrite/run_nki.py" source_line=193}
  %add.26 = f32[4096,64]{1,0} add(f32[4096,64]{1,0} %dot.21, f32[4096,64]{1,0} %broadcast.25), metadata={op_type="aten__addmm" op_name="aten__addmm" source_file="/home/ubuntu/cs217-final-proj/experiments/gcn_fx_rewrite/run_nki.py" source_line=193}
  %constant.27 = f32[] constant(0), metadata={op_type="aten__relu" op_name="aten__relu" source_file="/opt/aws_neuronx_venv_pytorch_2_9/lib/python3.12/site-packages/torch/nn/functional.py" source_line=1697}
  %broadcast.28 = f32[4096,64]{1,0} broadcast(f32[] %constant.27), dimensions={}, metadata={op_type="aten__relu" op_name="aten__relu" source_file="/opt/aws_neuronx_venv_pytorch_2_9/lib/python3.12/site-packages/torch/nn/functional.py" source_line=1697}
  %maximum.29 = f32[4096,64]{1,0} maximum(f32[4096,64]{1,0} %add.26, f32[4096,64]{1,0} %broadcast.28), metadata={op_type="aten__relu" op_name="aten__relu" source_file="/opt/aws_neuronx_venv_pytorch_2_9/lib/python3.12/site-packages/torch/nn/functional.py" source_line=1697}
  %call.42 = f32[4096,64]{1,0} call(f32[4096,64]{1,0} %maximum.29, s32[131072]{0} %p2.3, f32[131072]{0} %p1.2, f32[4096]{0} %p0.1), to_apply=%_locals_CallImpl.36, metadata={op_type="xla___op_<locals>CallImpl" op_name="xla___op_<locals>CallImpl" source_file="/opt/aws_neuronx_venv_pytorch_2_9/lib/python3.12/site-packages/torch_xla/core/xla_op_registry.py" source_line=44}
  %p7.44 = f32[16,64]{1,0} parameter(7), metadata={op_type="xla__device_data" op_name="xla__device_data" source_file="/home/ubuntu/cs217-final-proj/experiments/gcn_fx_rewrite/run_nki.py" source_line=195}
  %transpose.45 = f32[64,16]{0,1} transpose(f32[16,64]{1,0} %p7.44), dimensions={1,0}, metadata={op_type="aten__permute" op_name="aten__permute" source_file="/home/ubuntu/cs217-final-proj/experiments/gcn_fx_rewrite/run_nki.py" source_line=195}
  %dot.46 = f32[4096,16]{1,0} dot(f32[4096,64]{1,0} %call.42, f32[64,16]{0,1} %transpose.45), lhs_contracting_dims={1}, rhs_contracting_dims={0}, metadata={op_type="aten__addmm" op_name="aten__addmm" source_file="/home/ubuntu/cs217-final-proj/experiments/gcn_fx_rewrite/run_nki.py" source_line=195}
  %p6.43 = f32[16]{0} parameter(6), metadata={op_type="xla__device_data" op_name="xla__device_data" source_file="/home/ubuntu/cs217-final-proj/experiments/gcn_fx_rewrite/run_nki.py" source_line=195}
  %reshape.47 = f32[1,16]{1,0} reshape(f32[16]{0} %p6.43), metadata={op_type="aten__addmm" op_name="aten__addmm" source_file="/home/ubuntu/cs217-final-proj/experiments/gcn_fx_rewrite/run_nki.py" source_line=195}
  %broadcast.48 = f32[1,16]{1,0} broadcast(f32[1,16]{1,0} %reshape.47), dimensions={0,1}, metadata={op_type="aten__addmm" op_name="aten__addmm" source_file="/home/ubuntu/cs217-final-proj/experiments/gcn_fx_rewrite/run_nki.py" source_line=195}
  %reshape.49 = f32[16]{0} reshape(f32[1,16]{1,0} %broadcast.48), metadata={op_type="aten__addmm" op_name="aten__addmm" source_file="/home/ubuntu/cs217-final-proj/experiments/gcn_fx_rewrite/run_nki.py" source_line=195}
  %broadcast.50 = f32[4096,16]{1,0} broadcast(f32[16]{0} %reshape.49), dimensions={1}, metadata={op_type="aten__addmm" op_name="aten__addmm" source_file="/home/ubuntu/cs217-final-proj/experiments/gcn_fx_rewrite/run_nki.py" source_line=195}
  %add.51 = f32[4096,16]{1,0} add(f32[4096,16]{1,0} %dot.46, f32[4096,16]{1,0} %broadcast.50), metadata={op_type="aten__addmm" op_name="aten__addmm" source_file="/home/ubuntu/cs217-final-proj/experiments/gcn_fx_rewrite/run_nki.py" source_line=195}
  ROOT %tuple.52 = (f32[4096,64]{1,0}, f32[4096,64]{1,0}, f32[4096,64]{1,0}, f32[4096,16]{1,0}, f32[4096,64]{1,0}, /*index=5*/s32[131072]{0}, f32[131072]{0}, f32[4096]{0}, f32[64,64]{1,0}, f32[64]{0}, /*index=10*/f32[16,64]{1,0}, f32[16]{0}) tuple(f32[4096,64]{1,0} %call.17, f32[4096,64]{1,0} %maximum.29, f32[4096,64]{1,0} %call.42, f32[4096,16]{1,0} %add.51, f32[4096,64]{1,0} %p3.4, /*index=5*/s32[131072]{0} %p2.3, f32[131072]{0} %p1.2, f32[4096]{0} %p0.1, f32[64,64]{1,0} %p5.19, f32[64]{0} %p4.18, /*index=10*/f32[16,64]{1,0} %p7.44, f32[16]{0} %p6.43)
}

